…
76/76 [==============================] - 3s 41ms/step - loss: 0.0170 - accuracy: 0.9968 - val_loss: 0.2841 - val_accuracy: 0.9578
Epoch 1000/1000
76/76 [==============================] - 3s 41ms/step - loss: 0.0147 - accuracy: 0.9965 - val_loss: 0.2454 - val_accuracy: 0.9615
26/26 [==============================] - 0s 17ms/step - loss: 0.2454 - accuracy: 0.9615
Accuracy =  96.14906907081604 %
Average test loss:  0.21879997897800058
Model: "sequential"
_________________________________________________________________
Layer (type)                 Output Shape              Param #
=================================================================
lstm (LSTM)                  (None, 400, 64)           19456
_________________________________________________________________
dropout (Dropout)            (None, 400, 64)           0
_________________________________________________________________
lstm_1 (LSTM)                (None, 32)                12416
_________________________________________________________________
dropout_1 (Dropout)          (None, 32)                0
_________________________________________________________________
dense (Dense)                (None, 32)                1056
_________________________________________________________________
dropout_2 (Dropout)          (None, 32)                0
_________________________________________________________________
dense_1 (Dense)              (None, 1)                 33
=================================================================
Total params: 32,961
Trainable params: 32,961
Non-trainable params: 0
_________________________________________________________________
